trained_model.pth (torch, 27489 bytes, 13 tensors)

model.layer_1.weight f4 [64, 12]
00000000: 1987 143e 2cdf 193e 51ea c8bd 5d60 393d
00000010: 7d36 68be 723c 7abd 0cd9 fe3c 5a1e 95be
00000020: 656f 093e b188 8fbd 21c6 cd3d 4192 11be
00000030: 4e79 c8bc f932 7bbb 0580 7fbe f075 39be
00000040: a4e0 e63d 8937 5ebd a846 073e 919f c93d
00000050: d116 0abd 3e51 053e 6d53 6a3e aadb 843e
00000060: 7f1b 1abe 0946 91bc 9796 1a3d d8e7 86be
00000070: 86ac 7bbe 70f2 1abe 609f e33d 1a8e 87be
00000080: afec 62be 149a fd3d 95e6 9cbb a52d 6d3e
00000090: 503c 873e c9b5 5a3e 12bd c2bd cac5 dcbc
000000a0: c4f7 91be 03c2 a93d ba77 3abe 733d 9abd
000000b0: 0a7d a6bd c66c 433d d8a5 173d ef41 1c3e
000000c0: da0c 113e 479d 16be 1a58 293e 53ad 01bd
000000d0: 37b7 573e 76c4 75be d862 803e 8877 453e
000000e0: 1900 8e3d 447b bfbd 2ec7 85be 829e e93d
000000f0: a5ab 3ebe 387e cb3c 1074 27be d9bc 223e
00000100: 37d0 223e f2ab 50bd 4b23 213e 5400 e9bd
00000110: 8b10 49be c3fe 89be b521 15bd 0357 81be
00000120: 0f32 5dbe 9386 c1bc d274 ebbd c6b4 3e3e
00000130: 2bd4 903d 0ebb 3c3d 6f64 e43d 0a1c aebd
00000140: 1d8a 1e3d 14d6 cebc c12b ccbc 0b9e 463e
00000150: 302b 863e 1ca9 333e 3df9 b4bd 6b17 8c3d
00000160: 0ebf 433c d5c1 c5bc 0f29 0abe 8c40 21be
00000170: de64 f13d 8ada 7fbe 6344 2b3e 8c86 3abe
00000180: 1f7b 97be 4fea ff3d 3f68 613e d522 d0bd
00000190: bf02 0d3d ac5d 25bc 1694 d13d 3034 2ebd
000001a0: e5d1 913e 0022 ce3d 55c4 39be 6550 ac3d
000001b0: 7642 633e b1c3 ad3d ad70 423e 8816 363e
000001c0: 9d18 a8bd 5383 343d 260f 9bbe ced6 113e
000001d0: c25e b5bd 7cbb 99be 6a57 ac3d 7ad5 0d3e
000001e0: 477f 193e 00e5 dc3d 68b3 c1bd b859 6a3e
000001f0: ac8a 85bd a301 84be e852 53be f777 683c
00000200: c25f 4e3c 3935 c2bd c150 92be 6c54 153e
00000210: e6e1 28be 34f4 a9bc b223 23be a689 1abe
00000220: b583 1d3e b0b4 c23d e041 dcbd 6ef4 30bc
00000230: 4351 853e 67ed 06bd ff72 19bc 2de3 7cbe
00000240: ffe6 aebc d43b 1c3e 0513 3b3e 83b8 503e
00000250: c8f3 b0bb 8aae db3c 186c c3bb 2bb1 3fbd
00000260: cf12 c3bc 1c01 70bd 0fa6 b33d 0dc3 0c3e
00000270: 52f2 833e 41a3 0a3e 2326 043e a236 1bbc
00000280: 7c00 283d 4d2d 87be d704 c2bd 727c 4b3e
00000290: a4e0 103e 4fc2 7fbd 8b6a 9f3c 701f 0a3e
000002a0: 11d3 743e e11a 93be 0b9b 6cbe 05a4 91be
000002b0: 5334 a7be 2033 2d3e 056a c2bd 6ed2 f7ba
000002c0: 8428 7abd 3d56 5e3e e938 363e 4da4 123e
000002d0: 3770 3e3e 79b8 efbd 73fd 873c a7c9 3dbe
000002e0: b097 953e 6512 713e 354b 55bd f288 ea3d
000002f0: 5b72 9f3c d6c5 3c3e 99c3 0b3e d9ff 00be
00000300: cc2a 65be d830 7d3c e071 0abe 80ac 603e
00000310: 16c0 843e 9849 8b3e 0b72 d8bd ec2f 7e3e
00000320: 96fc 64bc 2913 89be c0a7 2cbe 011e 4abe
00000330: ba7c 3d3e 8d2d 16be 064d 9bbd 3e0c b03d
00000340: fdb5 9d3e 70dd 5ebd 7a70 143e a159 d5bd
00000350: 918b 20be fbb2 973c d02f a8bd 6006 dabc
00000360: 3c4a 743e 5c61 a8bd 904b 8bbe 88c7 52be
00000370: 9a8b 2f3e 7962 66be c524 3a3e fe40 133e
00000380: 91ed 763e 88c5 45be aa03 943e 9ec2 80be
00000390: 679d a2bd 50e6 74be 3219 933d 24b2 97bc
000003a0: 623f 0a3d 9a90 a1be faaa 673d f252 e1bd
000003b0: 7a49 bf3d c5db e2bd 951d b2bd c6f6 0abb
000003c0: c73d 1f3e 8c03 93be 7d76 93be bd0b 0c3e
000003d0: ad23 5abe 608c 573e f536 8e3e 093c 823d
000003e0: ea16 e8bd d30b 2fbe 47e9 0dbe 6f25 91be
000003f0: 39ba 38be 0763 163d bcd6 88be 1a67 16be
0.1450466 0.1502654 -0.09810317 0.045257915 -0.22677036 -0.0610928 0.031109355 -0.2912472
0.134214 -0.07008494 0.10047556 -0.14215948 -0.024471905 -0.0038329943 -0.2495118 -0.18111396
0.112733155 -0.05425218 0.13210547 0.09844888 -0.033713166 0.13019273 0.22883387 0.2594884
-0.15049551 -0.01773359 0.03774127 -0.26348758 -0.24577531 -0.15131545 0.11114383 -0.26475602
-0.221606 0.12382904 -0.0047882297 0.23161943 0.26413202 0.21358408 -0.095087186 -0.026949782
-0.28509343 0.08288958 -0.18209735 -0.07531252 -0.08129318 0.047711156 0.037023395 0.15259527
0.14165059 -0.14708434 0.16537514 -0.031659435 0.21065985 -0.24000725 0.25075412 0.19283879
0.069336124 -0.09349683 -0.26128525 0.11407186 -0.18620165 0.02484046 -0.16352868 0.15892352
0.1589974 -0.05094523 0.1573612 -0.11377016 -0.19635217 -0.2695218 -0.0364091 -0.25261697
-0.21601127 -0.02362374 -0.11496891 0.18623647 0.07071718 0.046076827 0.11151969 -0.08501442
0.038705934 -0.025248565 -0.024923207 0.19396226 0.26204824 0.17544979 -0.08836601 0.06840404
0.011947406 -0.024140278 -0.13492225 -0.15747279 0.11786817 -0.2498571 0.16725306 -0.18215388
-0.2958612 0.12495863 0.22012423 -0.10162894 0.034426447 -0.010093134 0.10233323 -0.04253024
0.2848045 0.10065079 -0.18141301 0.084137715 0.22193322 0.08484591 0.18988295 0.17782032
-0.082078196 0.044070553 -0.30284995 0.14242098 -0.08855964 -0.30025852 0.084151104 0.13850966
0.14989959 0.10785866 -0.09458047 0.22885787 -0.0652059 -0.257825 -0.20637095 0.014188758
0.012596073 -0.09482808 -0.28577235 0.14582986 -0.16492423 -0.020746328 -0.15931585 -0.15091571
0.15382273 0.0950712 -0.10754752 -0.010800464 0.2603856 -0.03294125 -0.009365796 -0.24696036
-0.021350382 0.15257198 0.18268974 0.20382886 -0.0054001547 0.026816625 -0.0059638135 -0.04679982
-0.02381268 -0.058594808 0.087719075 0.13746281 0.25770813 0.13538839 0.12905173 -0.009473475
0.041016087 -0.2640175 -0.094735794 0.19871691 0.14148194 -0.062441166 0.019459983 0.13488555
0.2390864 -0.28731444 -0.23106019 -0.2844545 -0.32657108 0.16914034 -0.09492878 -0.0018907317
-0.061073795 0.21712585 0.17795147 0.14320488 0.18597494 -0.11705107 0.016600346 -0.18533956
0.2921729 0.23542173 -0.052073676 0.114519015 0.019463709 0.18434843 0.13648833 -0.12597598
-0.22379607 0.01545354 -0.13520002 0.21940804 0.259278 0.27204585 -0.10568627 0.24822968
-0.013976237 -0.2677243 -0.16860867 -0.19738008 0.1850461 -0.14665814 -0.075830504 0.08596085
0.3080291 -0.054410398 0.14496031 -0.10417486 -0.1567824 0.018517962 -0.082122445 -0.026614368
0.23856443 -0.08221695 -0.27206087 -0.20583928 0.17143098 -0.22498502 0.18178089 0.14380261
0.24114062 -0.19313633 0.28909045 -0.2514848 -0.07940178 -0.23915982 0.0718254 -0.018517561
0.033751853 -0.31555635 0.05655954 -0.11002149 0.093401864 -0.11077074 -0.086970486 -0.0021204217
0.1555091 -0.28713644 -0.28801337 0.13676353 -0.21302672 0.21049643 0.27776304 0.06359107
-0.113324955 -0.17094354 -0.1385852 -0.28348872 -0.18039788 0.036715534 -0.2672633 -0.14687768

model.layer_1.bias f4 [64]
00000000: c1de 2dbe 39ca bebd 1757 83bd 04d7 65be
00000010: 5ff4 0bbe 86db 443e ae6a 2e3c 3367 073d
00000020: 314a 6a3e 086b 9d3e 1eca 53be 1399 44be
00000030: 50a9 813d aeda 9d3e 58f1 713c 1e09 b03d
00000040: 5e9f 88bd 6ced 3ebe 85fc 5cbe b441 4b3d
00000050: 3491 e3bc 6be5 4fbe 9851 c43d 149e a5ba
00000060: 8d35 27be 9e2e 233e 77fe ac3e 9143 cebd
00000070: 6dd3 9fbd 2f7b afbd 3937 abbd 130c 323d
00000080: 6ecf 833d 1235 d63c 9492 5bbe f9af 4fbd
00000090: 3110 a6bd db05 103e 3b1f 463e ae4c 043e
000000a0: 3fa5 4cbd 08c1 693e 8058 24be 7d33 1b3e
000000b0: 04a1 163d a851 843c 3145 85be e6e7 84be
000000c0: 5d26 0c3d 59ea 363c a371 2abd ea6b 933e
000000d0: f066 7d3e 99bd 223e ad4d cabc 9fb6 453e
000000e0: 3b8b 843d cec6 ee3d 3a9e 323d 9945 1d3d
000000f0: e4e1 0c3d b524 9c3c b9e2 efbd 63eb 573e
-0.16979505 -0.09315915 -0.064130954 -0.22445303 -0.13667439 0.19224367 0.010645552 0.033057403
0.22879864 0.3074572 -0.2068257 -0.19199018 0.06331122 0.30830902 0.0147670135 0.08595489
-0.06671022 -0.18645257 -0.21580704 0.049623206 -0.0277792 -0.2030236 0.09585875 -0.0012635612
-0.16329022 0.15935752 0.3378789 -0.10071481 -0.07803998 -0.08568417 -0.08360142 0.043468546
0.064360484 0.026148353 -0.21442634 -0.05070493 -0.08108557 0.14064734 0.19347851 0.12919876
-0.04996228 0.22827542 -0.16049385 0.1515636 0.03677465 0.016152218 -0.2602935 -0.25958174
0.034216274 0.011164271 -0.04161228 0.2879327 0.24746299 0.15892638 -0.024695242 0.19307946
0.064718686 0.11659013 0.043607928 0.03839645 0.034395114 0.019060472 -0.11713166 0.21085887

model.layer_2.weight f4 [64, 64]
00000000: 3899 833d 6679 7c3c 00ee b5bb 751b 8e3d
00000010: a152 0e3e f106 ee3d 6a9b b4bc 4b3f 98bd
00000020: a0d0 8d3b 76a4 6b3d 78f2 ba3d 1c54 0dbe
00000030: 9eaf d7bd f196 9e3d 7a88 96bd 9cd2 6b3b
00000040: 5060 6fbd 11bb d0bd 3a89 8b3c fd69 a0bd
00000050: 68bf 1f3d 78cd 0c3d b1d9 c63d 64f8 213e
00000060: 2878 e83b aded a13d 4efd 7f3c ec67 bcbc
00000070: 1e76 973d 4576 9e3c c3a9 c0bd c6c3 05be
00000080: fde1 f5bd bbd4 673d 6919 ddbd d4c8 9cbd
00000090: 027d ec3d 407f ce3d 96ac cdbc 3298 3e3d
000000a0: 1445 193d f1d5 a33d 7023 433d 79b5 0fbe
000000b0: d7fc 533c 90ff 6f3d 616f bbbd dc6d 12be
000000c0: f884 b1bc 0dba 8fbc 148b eb3d 306e 7e3c
000000d0: 14a2 413d 2489 b43d e4f5 8ebd 0214 e7bd
000000e0: 1927 da3d 911c b03d 3678 79bd 15d5 b03c
000000f0: d9a4 d0bd 308f 9dbd ba3f 01bd 7aa5 a03c
00000100: 863c 423d c6d0 56bd 0b7b 0abc 611a d0bc
00000110: e8fc ce3c d84e e93d f35a b2bc 8e0c 7d3c
00000120: d993 e5bd 6360 dd3d b598 c53d 5673 bc3d
00000130: cb98 82bd cdab edbd 4987 bebd 1eac a4bd
00000140: 51b8 c5bd c0c2 ca3a f0e9 97bd 7a79 d93c
00000150: af7c 00be 3ab7 92bd a2c6 0ebd 4cce d7bc
00000160: e4ab 8e3d 739b be3d 297e 6a3c da76 133b
00000170: f61f 1a3d d1e0 183d 1526 e9bd bde4 45bd
00000180: f7fb a93d 23f5 823d 286c bcbd 5cbc a53d
00000190: b6b1 b0bc aa39 d0bc f6ab 59bd f60e cdbd
000001a0: fa63 b2bd 03bc 51bd 5c08 ba3d 67ed acbd
000001b0: 80c3 83bd d33c 023e 3795 ccbd b483 ffbd
000001c0: 8074 d7bb 31d4 203d 70ee 0c3c 1fd2 aabd
000001d0: 5503 03be 7ffc a0bd 02c7 06be 8d85 8fba
000001e0: 7b21 a93d f37f b9bd 82d1 d33d d7c6 a13d
000001f0: fde0 203b 8df5 b13d 6b64 673d b516 20bd
00000200: 929f a13d b177 54bd 4657 ca3d 11ca fa3d
00000210: 6dd5 47bd beea 9ebc f2f4 adbd e5e3 003d
00000220: ad47 8ebd 665d 0c3e e667 d2bc 385a 073d
00000230: 0f08 0f3e 5cb8 19bc bdaf d5bd a90d ba3c
00000240: a4f0 3ebd 1d5c dfbd 1802 f1bd 6f48 bdbd
00000250: 0d3f 033e b057 b9bd 6fce 17bb 1910 3ebd
00000260: d513 8dbb 532d 67bd 9958 99bd 087e c53d
00000270: d48f 89bd ae6e a73d 4f33 cbbc bdf8 ebbd
00000280: 8880 633d c964 873d 5820 b3ba d98e c6bd
00000290: cba8 c33c 0fa0 303d e28b fe3a 1291 5a3d
000002a0: a167 5a3c 273a febd f846 cebc c4c0 383c
000002b0: c1ce 6e3d d97b 6f3d 1983 333d e850 573d
000002c0: 90e3 c5bd e79c d13d 3933 823c 0bda 843d
000002d0: df78 acbd 98c5 fcbd b7be 49bd ccf7 85bd
000002e0: f496 8ebb 0290 60bd 6330 efbd 50df a63d
000002f0: 474f ef3c cbd9 7c3d cee4 133d 5502 dd3c
00000300: eee5 0dbe f87a 9e3d 0c7e ff3d 7c55 613d
00000310: 6f0f 47bc 0d49 7fbd bb69 f3bd 0c41 7a3d
00000320: e2ba b9bd e7d8 bf3d e459 08be d49c 9ebc
00000330: 042f 58bc fd14 9dbd c8d9 8c3c 5a49 4a3d
00000340: 5141 7abd f9c8 cfbc f531 abbc e727 7b3d
00000350: 3756 cd3d fc68 953d 96ce d7bd 08b9 f3bd
00000360: bbfe 4d3d b168 303d 8a9c 65bc f282 a7bd
00000370: 1cdf 9bbd bdde cabd 3ed0 6cbd 2f07 033e
00000380: 6453 34bc 1e0c b9bc 274f 0a3d 3646 473c
00000390: 3d32 463d 7079 863d 87a9 10bc e2df 833d
000003a0: ec1c cb3c abf0 d0bd c1a7 bfbd d8fb 003e
000003b0: 88df bf3d 3e93 c1bd 38fd 0ebd 6151 cd3d
000003c0: d343 bf3d e5d8 5cbd 7332 04be 2a4b 8b3d
000003d0: 7c06 c63d e108 ac3d e361 aa3d f95b 893d
000003e0: 4439 f4bd 9159 1ebc bf7e c3bd 3b48 613d
000003f0: 425a 9cbc b127 afbd f746 d3bd 31f6 e7bc
0.064257085 0.015409803 -0.0055520535 0.06938831 0.13898708 0.11622418 -0.022046763 -0.07433947
0.0043278486 0.05752989 0.091282785 -0.13801616 -0.10531543 0.077436335 -0.073502496 0.0035983687
-0.05844146 -0.1019193 0.017033208 -0.07832716 0.0390009 0.034375638 0.0970949 0.1581741
0.007094402 0.07906661 0.015624357 -0.022998773 0.07395576 0.019343505 -0.094073795 -0.13062963
-0.120059945 0.05659936 -0.10795862 -0.076554924 0.11547281 0.10082865 -0.02510671 0.046531864
0.037419394 0.079997905 0.047641218 -0.1403407 0.0129387 0.058593333 -0.09152103 -0.1429972
-0.02166985 -0.01754477 0.115011364 0.0155292 0.04727371 0.0881522 -0.06980494 -0.11283113
0.106519885 0.085991986 -0.060905658 0.02158598 -0.10187692 -0.076933265 -0.031554915 0.019610155
0.047421 -0.052445196 -0.008452187 -0.025403203 0.02526708 0.113919914 -0.021771884 0.015444888
-0.1120984 0.108094 0.09648267 0.09201686 -0.06376799 -0.11605034 -0.09303147 -0.08040641
-0.09654296 0.0015469417 -0.07417667 0.026547182 -0.12547563 -0.07163854 -0.0348574 -0.026343487
0.06966379 0.09306993 0.0143123055 0.002250126 0.037628137 0.037323777 -0.11384217 -0.048313845
0.083000116 0.06394412 -0.09200317 0.08092567 -0.021569114 -0.025418121 -0.05314251 -0.10012619
-0.08710475 -0.051204693 0.09083626 -0.084437184 -0.06433773 0.12718515 -0.09989398 -0.12476292
-0.006575167 0.03926486 0.00860177 -0.08340859 -0.1279424 -0.0786066 -0.13161853 -0.0010949835
0.08258339 -0.090576075 0.10342695 0.07899254 0.0024548166 0.08689413 0.05649225 -0.039084155
0.07891764 -0.05187196 0.09879927 0.12245572 -0.048787523 -0.019399043 -0.08493985 0.031467337
-0.06947265 0.13707504 -0.025684308 0.033045024 0.13967918 -0.009382334 -0.1043391 0.022711592
-0.04661621 -0.10906241 -0.117679775 -0.09242331 0.1281702 -0.09049928 -0.0023163815 -0.04640207
-0.0043053427 -0.05643971 -0.07487602 0.09643179 -0.06716886 0.08175407 -0.02480474 -0.115220524
0.0555425 0.0661102 -0.0013666255 -0.09695215 0.023884198 0.043121394 0.001942035 0.053361006
0.013330371 -0.124134354 -0.025180325 0.011276428 0.058302645 0.05846772 0.043826196 0.052567393
-0.09662545 0.10235005 0.015893565 0.06486901 -0.08421492 -0.123423755 -0.049254145 -0.06541404
-0.004351491 -0.054824837 -0.11679151 0.08148062 0.029212607 0.06173114 0.036106877 0.026978651
-0.13857242 0.07738298 0.124752134 0.055013165 -0.012149676 -0.062325526 -0.11885401 0.06109719
-0.09068848 0.09367543 -0.1331554 -0.01936189 -0.013194803 -0.07670019 0.01719369 0.04938636
-0.061097447 -0.025364386 -0.020897845 0.06131735 0.1002621 0.07295415 -0.1053745 -0.11900526
0.050291758 0.04306859 -0.014014373 -0.08179273 -0.07610914 -0.09905765 -0.057815783 0.12795709
-0.01100621 -0.022588786 0.03376689 0.012162736 0.048387755 0.06566131 -0.008829481 0.06439187
0.024794064 -0.10202154 -0.093581684 0.12596071 0.09368807 -0.09451912 -0.034909457 0.100252874
0.09339108 -0.053917784 -0.1290987 0.06801446 0.096692055 0.08400131 0.08319452 0.067069955
-0.11924985 -0.009664909 -0.09545659 0.055000525 -0.019086007 -0.085524924 -0.1031627 -0.028315635

model.layer_2.bias f4 [64]
00000000: d33f bc3d 2889 f63b 7fd1 b2bd 446a 98bb
00000010: 0ba0 45bd bf8a 07be 6f62 8a3d 51d7 b2bd
00000020: 6e04 8fbd 5fcc 1bbd 1ee8 02be 0e5f e5bd
00000030: acb3 b2bd 30e1 083c 5362 5c3d 4df0 343c
00000040: b2e6 dc3d 1920 8c3d a34b cc3d 35b7 3abd
00000050: 334d 9e3c 0f3b b43c 1ea6 e0bd 53f4 8e3d
00000060: 0bdc a13d 2339 053e d5dd 823d 476d 63bd
00000070: 4498 2d3c 791b c43d 078d 63bd 5fb4 0f3d
00000080: 4b96 7c3d 12c2 0c3d c671 f43d f95f 20bd
00000090: 6ca8 c73c 1303 e0bd fb9b a13d f7dd 6fbb
000000a0: c6f6 b6bd 6495 d1bd bb2a cbbd 925a bb3d
000000b0: 6b2f 59bd 11bf cf3b 89da df3d 6e47 88bc
000000c0: 5e34 bcbd 8031 c1bc 2624 cdbd a6f2 bc3c
000000d0: 45a4 e5bd 28cd 113d 4678 883d efe6 10be
000000e0: b51a 913d e2fe 83bc b6ba 51bd 8454 a13d
000000f0: 6a53 053e e20b 143d 8abd f1bd 1bc2 40bd
0.09191861 0.0075236745 -0.087313645 -0.0046513397 -0.048248332 -0.13236521 0.06757056 -0.087324746
-0.06983267 -0.0380367 -0.12783858 -0.11199771 -0.08725676 0.00835447 0.053804707 0.01104362
0.10786189 0.0684206 0.09975364 -0.045584876 0.01932392 0.022000818 -0.10969184 0.06980195
0.07903298 0.13010077 0.06389967 -0.055524137 0.010595385 0.095755525 -0.055554416 0.035084125
0.061666768 0.034364767 0.11935763 -0.039154027 0.024372302 -0.10938086 0.07891079 -0.0036600807
-0.08933787 -0.10233572 -0.099202596 0.09148134 -0.053023737 0.0063399156 0.10930354 -0.016635623
-0.09189676 -0.023583174 -0.100166604 0.023064923 -0.112129726 0.035596043 0.06663565 -0.14150594
0.07085172 -0.016112749 -0.051203452 0.07877448 0.13020101 0.036144145 -0.1180373 -0.047060113

model.layer_out.weight f4 [1, 64]
00000000: 3c35 12be af44 e2bd 1161 c83c 5eca e43d
00000010: 1fa1 a4bd 83c1 cbbd 36c5 26be 588f 0b3e
00000020: afa2 a23d eb67 1f3e 66bb d0bc d555 d93d
00000030: f6e5 d6bd 5c4e 1f3d 2b49 a73c 4530 a8bd
00000040: 31ef a23d 05bf 303d f1cb 273d 2f76 28bd
00000050: 95c0 223e d057 bbbd 9ef0 173e b176 91bd
00000060: 2f98 92bc 5c03 5b3d 5052 213e 0939 19be
00000070: ddb3 e83d adc8 0c3e ef63 c93d 1d25 99bd
00000080: 9792 d7bd c68b 893d 63a2 4ebd 46ae c63d
00000090: 0ac2 6d3d 9bde 033e 2720 883d abea f53d
000000a0: 7984 013e 5578 013e 958f ff3d 7047 113e
000000b0: 5d96 37be 3573 9b3d a27c bbbd 336d 4ebd
000000c0: 83f9 963d 4c84 0a3e d0a3 f83d 864a c2bd
000000d0: 71d3 7f3d 58b9 283e 37f2 aebd 9639 3d3e
000000e0: 42ef 55bd 6b4a 04be 646e e7bd 2faf de3d
000000f0: a4de 0a3e ac16 90bd 5e02 c73d 2887 fe3d
-0.1427812 -0.110482566 0.024460347 0.11171411 -0.08038544 -0.09949019 -0.16286168 0.136289
0.07941186 0.15566985 -0.025479984 0.10612074 -0.1049308 0.03889309 0.020420631 -0.08212332
0.079557784 0.04315092 0.040965978 -0.041128334 0.15893777 -0.09147608 0.14837882 -0.07102717
-0.017894832 0.05347 0.15754056 -0.14963163 0.11362431 0.13748427 0.09833514 -0.07477782
-0.10526007 0.06716113 -0.050447833 0.09701209 0.05804638 0.12877886 0.066467576 0.1200765
0.1264819 0.1264356 0.12478558 0.14187407 -0.17928453 0.07590333 -0.09154631 -0.05039711
0.07371809 0.1352703 0.1214062 -0.094868705 0.062457506 0.16476953 -0.085422926 0.18478999
-0.052230127 -0.12919013 -0.11300352 0.10873257 0.13561493 -0.07035574 0.097172484 0.12428123

model.batchnorm1.weight f4 [64]
00000000: 772d 793f d570 793f 5263 803f 867e 7a3f
00000010: 3c2f 7a3f 08a5 803f cc25 7e3f 3407 783f
00000020: 1242 843f b6e0 7c3f e1a9 7f3f e566 833f
00000030: 4201 7b3f 3bfd 7e3f 7a70 813f 684c 7c3f
00000040: 3d7b 803f 0b5e 7e3f e61d 7d3f 2410 813f
00000050: 80ef 7b3f e514 793f b8a1 803f 0526 813f
00000060: 51a7 7f3f 17f7 853f b9c4 813f 227a 7a3f
00000070: 5bc7 793f fa92 803f bc26 7b3f 1871 823f
00000080: c241 803f e994 833f 9526 7d3f 80bb 7e3f
00000090: 8f1b 853f 9ae0 7c3f 01a7 813f bca6 803f
000000a0: 7d0c 7f3f 12f8 803f 71e9 803f 8528 853f
000000b0: e6c6 813f 41e1 813f e6a7 7c3f 0494 7f3f
000000c0: b207 833f cf99 7d3f 0702 833f 05e0 793f
000000d0: 7085 7b3f 6314 823f 34a7 813f 8242 7e3f
000000e0: 1ffb 7a3f f46b 743f e062 7a3f 80d1 833f
000000f0: d837 773f 8931 813f 5bda 7b3f e03a 843f
0.97335 0.97437793 1.003031 0.9784931 0.97728324 1.0050364 0.99276423 0.9688599
1.0332663 0.9878038 0.9986859 1.0265776 0.98048794 0.9960515 1.011245 0.98554087
1.0037609 0.9936225 0.98873746 1.0083051 0.98412323 0.9729751 1.0049353 1.0089728
0.9986468 1.0466031 1.013816 0.9784261 0.9756982 1.0044854 0.9810598 1.0190763
1.0020068 1.0279819 0.98886997 0.9950485 1.0399035 0.98780215 1.012909 1.0050883
0.9962843 1.0075705 1.0071241 1.040299 1.0138824 1.0146867 0.9869369 0.9983523
1.0236723 0.9906282 1.0234994 0.9760745 0.98250484 1.0162472 1.0129151 0.9932023
0.9803943 0.95477223 0.9780712 1.0298309 0.96569586 1.0093242 0.9838006 1.0330467

model.batchnorm1.bias f4 [64]
00000000: 29d5 b03c fe73 dabc 0da8 c3bb 9b4f 193d
00000010: b3c6 51bd 9afd 36ba 7d48 503b 4d31 0a3d
00000020: 2302 513d 57fb dcbc 0a57 0b3d e99a 0ebd
00000030: f25e 2a3d 6731 0ebd 6054 963c 9a18 01bb
00000040: 70c0 253d fb45 a3bc e05e f73c 04bd a8bc
00000050: 42c2 a63b 9f4c 43bd a4dc 9c3c 50c7 cfbc
00000060: cfa2 873c 07eb fcbc 12fd 23bd e9fe 41bd
00000070: 903d 94bc 1a14 18bd 2aa3 813c a98b df3a
00000080: f82b 8ebc b2da 833c 8fec 97bc 263b c6bb
00000090: e280 b5bc 09c3 3fbd a8be 30b9 8867 c1bc
000000a0: d309 a33c 5bc5 853b ff3a 19bd 1fd0 8f3d
000000b0: b246 dabc aaf6 4b3c 24dc 7abc 9662 913c
000000c0: d8b2 0bbc 5aa4 6a3d 5f46 80bd 8fe3 1cbb
000000d0: 9352 ca3c d66e 08ba fa35 be3c f66b 1ebd
000000e0: 479c 36bd cc2d 243d 2117 6abd ba82 f3bc
000000f0: 903a 2f3d a2cf 2e3d 146f 663c c77d efba
0.021586018 -0.026666638 -0.005970961 0.037429433 -0.051214885 -0.00069805386 0.0031781488 0.033738423
0.05102743 -0.026975317 0.034018554 -0.034815703 0.041594453 -0.034715082 0.01835078 -0.0019698502
0.040466726 -0.01993083 0.030196607 -0.020597942 0.0050890753 -0.047680493 0.019148178 -0.025363594
0.016557125 -0.030873789 -0.04003627 -0.047362242 -0.018095762 -0.037128545 0.015824873 0.0017055172
-0.01735495 0.016095493 -0.018545417 -0.0060495315 -0.022156183 -0.04681686 -0.00016855693 -0.023608938
0.019902145 0.0040823645 -0.03740978 0.07022118 -0.026645038 0.012448946 -0.015311275 0.017747205
-0.008526526 0.057285644 -0.06263422 -0.0023939346 0.024697578 -0.0005204504 0.023219097 -0.03867718
-0.04458263 0.040082738 -0.057150964 -0.029725421 0.04278046 0.042678483 0.014064569 -0.0018271737

model.batchnorm1.running_mean f4 [64]
00000000: 4e92 0c3e 82cf 5b3e d746 543e 9650 243e
00000010: 1449 143e ab9b ab3e d4c4 0b3e 8cdb 7b3e
00000020: e80b a33e 21bc f53e e386 ff3d 6791 2d3e
00000030: 3203 613e 1eee bd3e b232 673e 1175 6c3e
00000040: 905f 573e df83 903d e45b 553e 11c3 603e
00000050: 148e 6d3e 5511 613e 31ee b33e 2a57 4b3e
00000060: c882 203e 444f 9d3e 0b57 ea3e c301 153e
00000070: ffff 953e 2f20 c73d d0cb 393e b2ac 483e
00000080: 7635 823e 9d0d 8d3e 67ab 083e 297d 1f3e
00000090: a36b 373e a669 b73e 2612 ad3e a46e 893e
000000a0: 7c80 8e3e b034 be3e e786 aa3d 2699 aa3e
000000b0: ac73 543e d120 a23e 6c74 113e 9025 973d
000000c0: 342a 813e a27f 4f3e b673 683e fc1b cd3e
000000d0: 392d a83e a234 ad3e 66bd 2e3e 396d ce3e
000000e0: 25f3 773e ba2f 873e ea53 6d3e 5f42 ca3e
000000f0: a6a9 833e 4a80 4f3e 50db 4d3e 889b ae3e
0.13727686 0.21465877 0.20730148 0.16046366 0.14481002 0.33517203 0.13649303 0.24595469
0.3184502 0.47995093 0.124768995 0.16949998 0.21973875 0.37095731 0.22577932 0.23091532
0.21032548 0.070564024 0.20835835 0.21949412 0.2319873 0.21979268 0.35142663 0.19857469
0.15674889 0.30724537 0.45769534 0.14551453 0.29296872 0.097229354 0.18144155 0.19597128
0.25431412 0.2754945 0.13346635 0.15575089 0.17912154 0.3582279 0.3380291 0.26842225
0.278324 0.37149572 0.08326512 0.33319968 0.2074725 0.31665662 0.14204568 0.07380211
0.2522751 0.20263532 0.2270039 0.40060413 0.32847002 0.33829218 0.17064437 0.40317705
0.24213846 0.264036 0.23176542 0.39503762 0.2571537 0.20263782 0.20103192 0.34103036

model.batchnorm1.running_var f4 [64]
00000000: 082e 6a3d 5f78 d43d 82b4 b73d c7ba df3d
00000010: 4996 703d dc0d 143e 9a4d 0a3d 1e2a 023e
00000020: 077d ea3d c8c8 913e 164f 503d f4cb 903d
00000030: a970 a53d ef5a c43d 3d30 c93d 48af dc3d
00000040: 4db1 033e 0bb8 bf3c a411 043e 3ed0 8f3d
00000050: f285 3e3e d0bb f53d 859b 233e 5231 b73d
00000060: abd8 9c3d b3d3 0c3e b322 b03e 00f6 543d
00000070: beb7 5b3e 0e33 e73c 890f c73d 50e2 9c3d
00000080: 7fd2 1c3e b3cb 163e b6d8 903d 45bc 7d3d
00000090: 5230 9b3d 2b24 3a3e 6812 163e b7bb cb3d
000000a0: 7119 5a3e 1aab 0d3e 90fd ad3c d9b6 683e
000000b0: c6b1 923d 8eb6 3e3e 089e ce3d 912f d13c
000000c0: 7df8 c53d 10d6 ae3d 8499 ef3d 66f3 6a3e
000000d0: ebfd ed3d ce87 593e 745a f03d 9a14 5d3e
000000e0: b6ef a33d 534b 273e 6f9d c83d 56cd 803e
000000f0: b393 0c3e 44c8 cf3d fbf4 e33d 2eb4 173e
0.057172805 0.103745215 0.08969976 0.10924297 0.058737073 0.14458412 0.033765413 0.12711379
0.11449628 0.28473496 0.050856672 0.07070151 0.08078129 0.09587657 0.09823654 0.1077562
0.12860604 0.023403188 0.12897354 0.07022141 0.18605784 0.11998713 0.15977295 0.08944954
0.07658514 0.13752632 0.34401473 0.051992416 0.21456811 0.028222587 0.0971976 0.07660353
0.15314673 0.14726143 0.07072584 0.061947126 0.07577576 0.1817786 0.14655459 0.09947913
0.21298768 0.13834801 0.021239072 0.22726001 0.07162814 0.18624327 0.10088736 0.025535377
0.09666536 0.08536923 0.11699203 0.22944412 0.11620697 0.21243212 0.117360026 0.2158989
0.080047056 0.16337328 0.09795653 0.2515666 0.13728218 0.101456195 0.11130711 0.14814827

model.batchnorm2.weight f4 [64]
00000000: 2ed8 8b3f 0508 873f 96b7 7c3f 3d08 813f
00000010: cf1c 883f 21a7 873f 725e 893f 0d3a 863f
00000020: 3cbb 7f3f 631e 833f bff1 803f 29c0 823f
00000030: a205 873f 1cac 7b3f 356d 803f 6d77 8a3f
00000040: 94fc 833f bfc3 7f3f 9199 7f3f fa57 823f
00000050: 81b0 843f ea4a 843f 76e0 833f 626d 843f
00000060: 8cd6 7f3f 20ba 873f ea34 863f 7d00 823f
00000070: de56 873f 3f0f 873f a966 813f e576 803f
00000080: f277 853f 0a3c 883f f279 7e3f 86f9 843f
00000090: d998 833f edb9 893f 85ef 843f ce0e 823f
000000a0: 7c11 823f 8d26 843f edff 833f 958b 873f
000000b0: e852 873f 361c 863f e401 853f 34c4 843f
000000c0: 47b5 893f f831 813f 92fb 803f 9c1a 803f
000000d0: 7b94 873f b484 863f 74b0 8b3f 4ef5 883f
000000e0: 6b51 813f 714c 863f 74c5 863f 5b26 813f
000000f0: 65b7 823f 4863 813f 21cd 813f 1544 883f
1.0925348 1.0549322 0.9871763 1.0080639 1.0633792 1.0597879 1.0731947 1.0486466
0.9989507 1.0243648 1.0073775 1.0214893 1.0548594 0.98309493 1.0033327 1.0817696
1.0311456 0.9990806 0.998437 1.0183098 1.0366365 1.0335362 1.0302875 1.0345881
0.9993675 1.0603676 1.0484898 1.0156399 1.0573385 1.0551528 1.0109454 1.0036284
1.042723 1.0643322 0.99404824 1.0388649 1.028102 1.0759865 1.0385596 1.0160768
1.0161586 1.0324265 1.0312477 1.0589472 1.0572176 1.0477359 1.0391202 1.0372376
1.0758446 1.0093374 1.0076773 1.000812 1.0592188 1.0509248 1.0913224 1.0699861
1.0102972 1.0492078 1.0529008 1.008983 1.0212218 1.0108423 1.0140725 1.0645777

model.batchnorm2.bias f4 [64]
00000000: 2e8f dabd 4d57 d2bd 6d04 a43d 8c53 c03d
00000010: 8752 dfbd 1b9e d9bd a8c8 d0bd 0a33 ca3d
00000020: 8e77 be3d 563a c53d 11d6 d6bd 3151 c83d
00000030: 7eb8 d2bd 5411 b13d d53d c23d 009d ecbd
00000040: b1b6 d23d d727 bd3d c2a7 bf3d f19f d7bd
00000050: 9394 c93d d319 d6bd 2b4c c43d f810 d7bd
00000060: 904e aebd 0e81 e73d 2ece c73d 8bc8 c2bd
00000070: 5863 d93d 3ddd ce3d 7e7a c23d 2a58 c5bd
00000080: fa8d ccbd a004 f13d 0e2f b8bd e514 d23d
00000090: fced d73d edb4 d53d d6c7 db3d d321 c83d
000000a0: 8548 c13d 5053 ca3d fbf3 c93d 8b53 ce3d
000000b0: 89fc c6bd 4874 da3d ffab cfbd e602 e2bd
000000c0: 7d2e f93d 8e90 bd3d 388d bf3d eb30 babd
000000d0: 8d3c f23d 4c01 cb3d 1bf5 fbbd 7673 ce3d
000000e0: e5e9 cabd 25fa ccbd e7a2 d3bd c54a c13d
000000f0: 2f63 c53d 685e cbbd c8d3 c33d 0601 d63d
-0.106718406 -0.102705576 0.08008657 0.09390935 -0.10904413 -0.10625859 -0.10194522 0.09873016
0.09300147 0.09630267 -0.10490049 0.09781111 -0.10289095 0.08645883 0.0948445 -0.11553383
0.10288752 0.092361145 0.09358169 -0.10528553 0.098427914 -0.10454144 0.095848404 -0.105012834
-0.08511078 0.11303912 0.097561225 -0.09510907 0.106146514 0.101007916 0.0949602 -0.096359566
-0.099880174 0.1176846 -0.0899335 0.102578916 0.10543439 0.104348995 0.10731475 0.097720765
0.0943766 0.09879172 0.09860989 0.10074528 -0.09716136 0.1066671 -0.101402275 -0.11035709
0.1216707 0.09256087 0.09353107 -0.090913616 0.118279554 0.09912357 -0.123026095 0.10080616
-0.09907893 -0.10008649 -0.103338055 0.09438089 0.096380584 -0.09930116 0.095618784 0.10449414

model.batchnorm2.running_mean f4 [64]
00000000: a183 883e 6990 793e 9630 473e c9db 773e
00000010: 81cd ac3e 4fa2 ac3d 942e a83e e20a 933e
00000020: 7285 273e 09b5 4b3e f5bf 263e 9d03 3c3e
00000030: 7d26 483e eba0 913e 43df 603e effa 833e
00000040: f8f9 823e b0f0 753e 6e37 a73e 2b45 1b3e
00000050: 2859 783e f494 813e 9b0b 1e3e aa9a 703e
00000060: feec 723e 511b b23e d393 7f3e c7e0 3a3e
00000070: 7c96 8c3e 20e0 563e 8755 8f3e 92f7 863e
00000080: 5523 943e 03f3 9b3e e294 9c3e 7f5f 8d3e
00000090: 8398 923e cbca 263e 8b93 803e 97f3 7b3e
000000a0: 3852 723e 908f 523e 3880 343e 8184 a63e
000000b0: 16fe 053e 5e04 8d3e 47d2 6a3e 87bc 4b3e
000000c0: ec5c 0d3e 7222 763e 81ac 223e a99d 8b3e
000000d0: c733 423e e840 4e3e 8790 8d3e 765c b73d
000000e0: 6177 563e b776 863e 92c1 f93d 52ea 8e3e
000000f0: 86ab b63e e0b4 3a3e 7fe0 4f3e 9a0c 643e
0.26662925 0.24371494 0.19452128 0.24204935 0.33750537 0.084293954 0.32848036 0.2871924
0.16359499 0.19893278 0.16284163 0.18360753 0.19545932 0.28443083 0.21960168 0.25777385
0.25581336 0.24017596 0.32659477 0.15163104 0.2425276 0.25308955 0.15434115 0.234965
0.23723218 0.34786466 0.24958734 0.18249808 0.2745856 0.20983934 0.2799494 0.26360756
0.28933206 0.3045884 0.3058234 0.2761192 0.28631982 0.16288297 0.25112566 0.24604641
0.23664176 0.20562577 0.17627037 0.32522967 0.13085207 0.27542394 0.22931777 0.19896136
0.13804978 0.24036577 0.15886118 0.27268723 0.18965064 0.20141947 0.27649328 0.089531824
0.20943977 0.26262447 0.12195124 0.27913147 0.35677737 0.18233061 0.20300482 0.22270432

model.batchnorm2.running_var f4 [64]
00000000: 6edf c53d 520f 033e d042 c73d 3af4 ea3d
00000010: dc92 5f3e ff48 013d 99db 5b3e 1446 3d3e
00000020: 0bf8 a43d 46fd c03d 2d99 9f3d 9e46 ad3d
00000030: dc94 d63d a5ef 313e 91e1 b83d c148 223e
00000040: ab45 ff3d 6551 b43d 5c0a 263e 2185 593d
00000050: b86a fe3d 5a4f ea3d 77f9 993d e2a0 f03d
00000060: e02e ee3d d643 1c3e bfff e63d 5284 c83d
00000070: f935 053e eacf 7b3d 7d4b 453e dc87 123e
00000080: 4dc8 233e b860 093e a23f 2a3e 4571 173e
00000090: 225b 343e 1c43 633d e1b4 d93d 016a 0e3e
000000a0: 81fd 303e 5cd7 d53d d895 cd3d 44fb 073e
000000b0: 52e2 793d a713 fc3d 14d9 c43d 91b8 b93d
000000c0: 3333 2a3d 087e 063e a265 993d 38d0 283e
000000d0: 5f28 af3d c0a1 983d 2e64 fc3d 6f83 133d
000000e0: 30c6 cc3d 2fb6 173e f91f 163d 706a 0c3e
000000f0: 5fe5 413e 2af2 8f3d 5716 ea3d 8c94 cd3d
0.096617565 0.12798813 0.0972954 0.11472364 0.21833366 0.031563755 0.21470489 0.18483764
0.08055123 0.09423308 0.07792888 0.08460735 0.104776114 0.17376573 0.090273984 0.15848066
0.1246446 0.08804587 0.1621489 0.053105477 0.12422699 0.11440916 0.07518285 0.11749436
0.116300344 0.15260252 0.112792484 0.09790863 0.1300887 0.06147758 0.19267078 0.14309639
0.15994377 0.13415802 0.16625836 0.14789303 0.1761289 0.055483922 0.10630203 0.13907625
0.17284204 0.10441467 0.10038346 0.13279444 0.06100685 0.12308436 0.09611717 0.090684064
0.041552734 0.13134015 0.07490088 0.16485679 0.08552622 0.07452726 0.12323795 0.036014017
0.09998739 0.14815591 0.036651585 0.13712478 0.18935154 0.07028611 0.11430042 0.10038099
